…
2021-10-31 12:03:19.549740: I tensorflow/stream_executor/platform/default/dso_loader.cc:53] Successfully opened dynamic library libcublas.so.11
2021-10-31 12:03:19.762934: I tensorflow/stream_executor/platform/default/dso_loader.cc:53] Successfully opened dynamic library libcublasLt.so.11
Model: "model"
_________________________________________________________________
Layer (type)                 Output Shape              Param #   
=================================================================
input_1 (InputLayer)         [(None, 128, 11, 1)]      0         
_________________________________________________________________
pixel_conv_layer (PixelConvL (None, 128, 11, 128)      6400      
_________________________________________________________________
residual_block (ResidualBloc (None, 128, 11, 128)      98624     
_________________________________________________________________
residual_block_1 (ResidualBl (None, 128, 11, 128)      98624     
_________________________________________________________________
residual_block_2 (ResidualBl (None, 128, 11, 128)      98624     
_________________________________________________________________
residual_block_3 (ResidualBl (None, 128, 11, 128)      98624     
_________________________________________________________________
residual_block_4 (ResidualBl (None, 128, 11, 128)      98624     
_________________________________________________________________
pixel_conv_layer_6 (PixelCon (None, 128, 11, 128)      16512     
_________________________________________________________________
pixel_conv_layer_7 (PixelCon (None, 128, 11, 128)      16512     
_________________________________________________________________
conv2d_18 (Conv2D)           (None, 128, 11, 1)        129       
=================================================================
Total params: 532,673
Trainable params: 532,673
Non-trainable params: 0
_________________________________________________________________
Epoch 1/10
   1/5491 [..............................] - ETA: 6:57:19 - loss: -1896.3657   2/5491 [............
…
